AI Part/model/@model/20240510st01_SymmetricalResidualGAT.pth (torch, 274346 bytes, 68 tensors)

embed.conv1.att_src f4 [1, 8, 8]
000000 22 4f b6 3f 04 bd 91 3f f7 1c ac bf 87 30 8c bf
       1.42429 1.1385808 -1.3446339 -1.0952309
000010 97 61 97 3f 80 03 c6 bf 6e 21 24 be 68 33 d8 be
       1.1826657 -1.5469818 -0.16028377 -0.4222672
000020 52 d2 97 bf fa 1e 00 40 00 2f de bf 0e 36 12 c0
       -1.186106 2.0018907 -1.7358093 -2.2845492
000030 a8 de ee 3f 47 bf 42 bf 5e 8b 23 bf b2 36 80 bf
       1.8661699 -0.76073116 -0.6388453 -1.0016692
000040 17 4a 89 bf 5d 08 85 3f dd c3 d3 be 2e 1b 82 be
       -1.0725735 1.0393177 -0.4136037 -0.2541136
000050 e8 7d 7f bf 5e c8 54 3f e5 c7 68 bf e5 88 d0 bf
       -0.9980149 0.83118236 -0.90930015 -1.6291777
000060 1a 74 b9 3d 4f d0 dd bd 58 ca 8f 3f 61 fb 27 3e
       0.09055348 -0.10830747 1.1233625 0.16404487
000070 50 e4 47 bf 55 07 b1 3f 3c 31 56 3f fb fd 18 bf
       -0.7808275 1.3830363 0.83668876 -0.59762543
000080 0d e4 c4 be 46 d7 02 bf ec 1d 0f bf cd a5 ac 3f
       -0.3845524 -0.5110973 -0.5590503 1.3488098
000090 b0 ce 7e bf 03 a6 9d 3f 75 53 a6 bf d5 83 0c 3f
       -0.9953413 1.2316288 -1.2994219 0.5488866
0000a0 c2 a0 5a 3f 61 25 82 3e 23 f9 fc 3e f8 4a 9b be
       0.85401547 0.25419143 0.49408826 -0.30330634
0000b0 d6 f1 8c 3f 17 73 25 3e 7d 0c b8 3e 6e 50 8d ba
       1.1011302 0.16157185 0.35947028 -0.0010781416
0000c0 08 89 71 3e d4 b7 31 bf 74 e6 9c 3d 33 3f 58 be
       0.2358743 -0.69421124 0.07661143 -0.21117859
0000d0 cc dd c7 3e 9b b1 2e bf 25 64 6e 3f d7 4b 02 be
       0.39036405 -0.68239754 0.9312156 -0.12724243
0000e0 e6 41 b8 3f ed 1d 4d bf b9 7c 0f 3f 3d 3f c6 3f
       1.4395111 -0.8012379 0.56049687 1.5488049
0000f0 b3 61 86 3f 42 3d 0b be 87 1e a6 3f a7 70 ae 3f
       1.0498565 -0.13597587 1.2978066 1.3628129

embed.conv1.att_dst f4 [1, 8, 8]
000000 d5 18 77 3e 6f bb a7 bf c6 ab 1c 3e 64 e3 33 bf
       0.24130566 -1.3104075 0.15299901 -0.70268846
000010 23 84 33 3f e8 14 2f be b2 60 e9 3e 79 b8 26 3d
       0.701235 -0.17097819 0.45581585 0.04070327
000020 74 36 47 3f 78 bf 19 bf de eb 9f bf 44 7d c9 be
       0.77817464 -0.60057783 -1.2493856 -0.39353383
000030 8e 07 07 bd a2 11 00 bb 91 57 a4 3f 6d 49 6c 3e
       -0.03296619 -0.001954176 1.2839223 0.23074885
000040 ff 0e b4 bf c8 22 b4 bf de ee c2 3d 2d d2 d7 be
       -1.4067076 -1.4073114 0.095182166 -0.4215254
000050 7f bd 5e 3f 2e f9 4e bf 59 66 07 bf 98 c0 38 bf
       0.870079 -0.8084897 -0.52890545 -0.72168875
000060 6f 5b 64 3f 59 e3 34 3f 9c 98 b2 bf b4 1e 45 bf
       0.89202017 0.70659405 -1.3952823 -0.76999974
000070 2d 52 57 be 7c e3 a7 bf eb ac be bf 3e f7 4e 3f
       -0.21027441 -1.3116298 -1.489652 0.8084601
000080 22 3b ae be fb 6c 06 3f 7d 53 a3 bd e4 64 eb bd
       -0.3402949 0.5251004 -0.079749085 -0.11493853
000090 32 18 94 be 28 58 e1 be e3 24 6d be 45 25 de 3e
       -0.2892471 -0.4401257 -0.23158602 0.4338781
0000a0 91 db a5 bd 92 a4 95 bf cc 35 f2 3d a5 4d 11 3f
       -0.080985196 -1.1690848 0.11826667 0.567591
0000b0 25 46 25 bf af ba 09 bf 7b 1d 2f be c4 ec 4a 3f
       -0.6456016 -0.5380048 -0.1710109 0.79267526
0000c0 1c 2b b0 be b7 8b 10 3f 39 3c c9 be ca 9b 6c 3e
       -0.3440789 0.5646319 -0.3930376 0.23106304
0000d0 94 14 e5 3e 22 d3 1e bd 10 04 09 bd e6 c4 e2 bd
       0.44742262 -0.03877557 -0.03345114 -0.11072712
0000e0 b7 3f 09 bf 5c 47 cf 3f ea 33 cd 3f bb ca 45 3f
       -0.53612846 1.6193652 1.6031468 0.7726247
0000f0 4b 6a df be 6c 72 5a bf 0a fe 8b 3f 6f 03 7a bf
       -0.43635783 -0.85330844 1.0936902 -0.9766149

embed.conv1.bias f4 [64]
000000 c5 6a 4f 3c 00 00 00 00 bc af 99 bb 8d ee 88 be
       0.012659733 0.0 -0.0046901386 -0.267445
000010 c3 7e 31 3d 05 a0 63 bc 48 99 7f bd 1c 5a d6 3d
       0.04333378 -0.013893132 -0.06240204 0.10466406
000020 1b c7 b2 bd f7 23 b5 3c b7 96 0e bd dc fc 80 3b
       -0.087293826 0.022111876 -0.0348117 0.003936393
000030 57 59 00 bc 96 6d ab bd d1 c1 9a bd 93 11 09 bd
       -0.0078338 -0.08370511 -0.07556499 -0.033464026
000040 c8 99 2f bc 01 cb d6 3d c0 a8 2c 3d d4 11 cb 3d
       -0.010717817 0.10487939 0.04215312 0.0991551
000050 cc 34 a0 bb 79 5c fe 3d 2e 79 fd 3c 50 d1 9c 3c
       -0.0048891064 0.124199815 0.030941572 0.019142777
000060 29 fd bf bd 33 be 56 bd 00 00 00 00 c4 57 b2 3d
       -0.09374458 -0.05242748 0.0 0.08708146
000070 b0 42 84 bd 00 00 00 00 00 00 00 00 2d c4 e9 bd
       -0.06458032 0.0 0.0 -0.11414371
000080 c7 b7 b0 bd 34 85 01 3d d9 eb 33 bd f8 30 ba 3c
       -0.08628803 0.031621173 -0.043926094 0.022728428
000090 55 93 8d bd 41 09 3d 3d 80 64 58 bd 9b 77 fa 3b
       -0.06912867 0.046151403 -0.05283022 0.0076436526
0000a0 2f a1 b4 3c d5 08 2e bd 26 f2 c2 bd 56 91 a8 bd
       0.022049515 -0.04248889 -0.095188424 -0.08230846
0000b0 5d b2 ec bc 0d 7f ec 3d 57 a9 ae 3c 99 4c fa bd
       -0.028893644 0.115476705 0.021320982 -0.12221641
0000c0 3a c4 8c bd e0 0e 99 bd f3 37 03 3d 04 da ba bc
       -0.06873365 -0.0747354 0.03203578 -0.022809036
0000d0 df 01 09 bc d0 f3 3e bc ae be d5 3b b6 25 23 3d
       -0.0083622625 -0.011654809 0.006522975 0.039830886
0000e0 6b 8e 35 bc 74 c6 5e bd 64 95 1f be aa c0 6e bd
       -0.011081318 -0.05438848 -0.15584332 -0.058289208
0000f0 a4 72 5d bd e4 2e 47 3c e4 f5 a0 bd a3 75 35 be
       -0.054064408 0.012157176 -0.078594 -0.17720656

embed.conv1.lin.weight f4 [64, 4]
000000 f9 56 2d 3b fc 84 3a be fe 8d 5a 3e 4a 09 d9 be
       0.0026449545 -0.18214792 0.21343228 -0.423899
000010 38 fc bb bf b3 9a ab be 65 23 9b be fe 24 ad be
       -1.4686346 -0.33516464 -0.3030044 -0.33817285
000020 4c 05 b6 3d f8 bc 49 bf 2c 25 aa be 32 bf 71 3d
       0.08887729 -0.7880397 -0.33231485 0.05902023
000030 6c d4 90 3e d5 c5 8c be 58 b9 84 bf 3a df 31 bf
       0.28287065 -0.27494684 -1.0369062 -0.6948124
000040 d1 d1 9a bd c6 30 8a 3f 8e b3 ef 3d 29 4a e1 bc
       -0.075595506 1.0796134 0.11704169 -0.027501183
000050 1d c3 ce 3d f0 ed d8 3d 1d b4 d1 3c a8 14 f7 be
       0.10095809 0.10592258 0.02559858 -0.48257947
000060 9f 62 e9 3c 60 f5 ad be f8 d6 43 3e 97 a5 55 3e
       0.028489409 -0.3397627 0.19124973 0.20863949
000070 d0 5d 36 3c 2f 28 71 bf 51 d1 af be 38 17 7a 3e
       0.011130765 -0.9420194 -0.34339383 0.2442292
000080 ae a6 14 3e 0b 32 c4 be 86 f9 41 be b3 1e b4 bd
       0.14516708 -0.3831943 -0.18942842 -0.08794918
000090 6e c1 8a bf c6 f4 89 3e c0 e7 28 3f b4 a4 77 3f
       -1.084028 0.2694456 0.6597862 0.9673569
0000a0 96 6b 8f 3e 70 00 df be bc 9d de bf d0 f6 9f bf
       0.2801177 -0.4355502 -1.7391887 -1.2497196
0000b0 59 dd 7a 3e b1 db d8 be 5e e8 82 be b5 80 d2 be
       0.244985 -0.4235511 -0.25567907 -0.4111382
0000c0 6a 7a 0b be 9e 15 38 be d7 93 88 3e 13 a9 c8 bd
       -0.13620916 -0.17976996 0.26675293 -0.09797873
0000d0 a3 01 6e 3d 10 c2 d5 be 21 10 82 bd 2c 97 90 3c
       0.05810703 -0.4174962 -0.063507326 0.01765021
0000e0 82 c9 48 3d 65 04 d7 3a 07 43 30 bd d5 6b cc 3e
       0.049020298 0.0016404508 -0.043032672 0.3992602
0000f0 81 12 9c 3d 70 79 55 3f 10 15 3e bd 85 c0 89 be
       0.07620717 0.83388424 -0.046406806 -0.26904693
000100 a4 b4 07 3e 86 73 b7 3f 0a cf 4f bf 99 f4 7b 3e
       0.13252503 1.433213 -0.8117529 0.24605025
000110 c7 6b 42 be 9f a2 b2 bd 5b 1e ab 3e 9f 88 07 bf
       -0.18986426 -0.08722424 0.33421597 -0.5294284
000120 ed 95 17 3d 8d 3e 6c 3f 6f 79 28 be 75 a4 a8 3e
       0.037008215 0.92282945 -0.16452573 0.3293797
000130 b1 88 8e 3c a1 c3 70 3f 5f c9 32 be b5 61 06 3e
       0.017399164 0.94048506 -0.1745963 0.1312321
000140 08 a3 14 3e b3 74 35 bf 1c 5a 27 be 49 16 83 be
       0.14515316 -0.70881194 -0.16342968 -0.2560294
000150 a4 dc b9 be 91 7a 71 bf a2 56 95 3e a4 00 d3 3c
       -0.36301148 -0.94327646 0.29167658 0.025757141
000160 e6 35 cd bc be 6b 5f 3e cf e9 79 3e e4 8e fe be
       -0.025050115 0.21818444 0.24405597 -0.49718392
000170 82 6b 03 3e c9 57 f4 3d e3 7f 40 be 5e 1f ea be
       0.1283398 0.11930806 -0.18798785 -0.45727056
000180 07 5f d1 3c 0c 82 26 3f bd 74 5f 3e 19 f4 9d be
       0.025558008 0.65042186 0.21821876 -0.30850294
000190 fd d2 c6 3d 0a 81 5c bf 54 e9 18 3d 12 4e 05 3e
       0.097082116 -0.861344 0.037331894 0.13018063
0001a0 01 1f 9f bf 0e 90 7b bd 8b 19 bd bf 89 ee 4a bd
       -1.2431337 -0.061416678 -1.477342 -0.04954389
0001b0 92 dc 26 be f0 49 a6 be 7f 06 39 3d 09 88 72 3c
       -0.16295078 -0.32478285 0.04517221 0.014802941
0001c0 3d 35 18 3e e3 63 3c 3e fa 2d 13 3d 06 02 20 bf
       0.14864059 0.18397479 0.03593252 -0.6250309
0001d0 48 57 78 bf 9e 56 7b be 69 12 75 bf 38 c0 9f 3e
       -0.9700818 -0.2454476 -0.95731217 0.3120134
0001e0 f1 a3 a4 bf 46 42 4f be ea 7f a2 bf 12 96 6d bf
       -1.2862531 -0.20240125 -1.2695286 -0.92807114
0001f0 9b 6d 1d 3e 6b 65 40 3e f5 5a 6f be 22 5d 2f be
       0.15373842 0.18788688 -0.23374541 -0.17125371
000200 e4 e1 7e 3d e4 57 ab bc 9a 20 55 3e 20 62 34 3e
       0.062227145 -0.020915933 0.20813218 0.17615557
000210 f1 21 7b 3d 50 1d 7c bf 15 06 54 bc 8a 8c 5e be
       0.061311666 -0.9848223 -0.012940903 -0.21733299
000220 cc 85 81 bb ed 53 12 3f 6f 60 02 3d a3 5c c0 3e
       -0.0039527174 0.5715931 0.031830247 0.37570676
000230 05 ec 30 bc 62 e5 b5 bf bd 6a ef 3d bb 12 ff 3b
       -0.010798459 -1.4210627 0.116902806 0.0077842153
000240 4b be 47 3c d1 0e 4d be 42 2f a7 bf 98 91 99 be
       0.0121913655 -0.20025183 -1.3061297 -0.29993892
000250 2c 30 df bc d6 e1 9a bf 27 90 50 3e de da 84 be
       -0.02724465 -1.210017 0.2036749 -0.25948232
000260 49 38 99 3d 32 45 a7 3e d2 c5 32 3e 34 1a 02 bf
       0.07481439 0.3266998 0.17458275 -0.5082123
000270 1a dd d7 b9 57 e4 c5 be ee af 14 3e d6 f4 94 be
       -0.0004117273 -0.38650772 0.14520237 -0.29093045
000280 12 85 1b bc ee fe 90 bf 3c 6b be 3d 79 f2 f1 bc
       -0.009492176 -1.1327798 0.09297797 -0.029534565
000290 47 c6 28 bf f9 43 63 3c f3 a1 c0 bd fa 73 2f bf
       -0.6592755 0.013871186 -0.09405889 -0.6853634
0002a0 de 7c bd bd 6f 86 a2 be 57 72 35 3e 5f 71 3d bc
       -0.09252332 -0.3174319 0.17719398 -0.011562674
0002b0 4c c8 e1 3d 04 ac 5b bf 01 0d 0a 3e 4b b5 6a be
       0.11024532 -0.8580935 0.13481523 -0.2292072
0002c0 48 43 88 bf ec 88 78 be 75 8b 61 3f eb 22 9a 3e
       -1.0645533 -0.24270982 0.8810342 0.30104765
0002d0 00 28 47 be d1 99 57 c0 1f 80 65 3e 9c c4 c8 3c
       -0.19448853 -3.3687632 0.22412156 0.024507813
0002e0 77 cc 92 bd 5d 33 3c be 98 ae b5 3d f7 36 a0 be
       -0.07167905 -0.18378969 0.08871192 -0.31291935
0002f0 a1 94 dd 3d dd 9d ce 3e 8d 5f c4 3c 98 c4 59 be
       0.10819364 0.40354815 0.023971343 -0.21266401
000300 35 5b 86 bd ce 08 09 3f 9a 61 52 3d c2 22 55 bc
       -0.06560365 0.5352906 0.05136261 -0.013008775
000310 cd 54 78 bd 86 a6 f6 bc 88 3c 96 bf e4 6f 92 3c
       -0.060627747 -0.030108701 -1.1737223 0.01787562
000320 07 82 19 3d e8 2f 98 bf 2e aa 70 bd df 80 86 3e
       0.03747752 -1.188962 -0.058756046 0.26270196
000330 dd 31 10 be cc 0a 02 3e cd a9 7e bf e9 ee 50 3e
       -0.14081521 0.12699431 -0.99477845 0.20403637
000340 bb df 87 3d 2c b6 e4 be 5d bd 03 be 36 71 da bd
       0.0663447 -0.44670236 -0.12865205 -0.106661245
000350 75 a5 9e 3d 7f b1 63 bf ec 38 ef be 4d 47 0c 3e
       0.07746402 -0.8894271 -0.46723115 0.13699074
000360 50 2a b9 bc 25 13 5c be 7b 90 8e 3e de 62 ca be
       -0.022603184 -0.21491678 0.27844605 -0.39528555
000370 8f b6 2b be 42 92 27 be 62 e2 fc 3d ed 6e d7 3e
       -0.1676886 -0.16364387 0.123478666 0.42076817
000380 63 66 4a be 5d b6 e4 bc 1c b0 99 3e a0 e5 dd 3d
       -0.1976562 -0.027918989 0.30017173 0.10834813
000390 9d 5f 37 3e 41 41 07 bf 67 bf 7a be 07 ab 67 be
       0.17907567 -0.52833945 -0.24487077 -0.22623836
0003a0 66 88 9a 3c 23 fb d9 3e d3 d9 8e 3d 48 51 d0 bd
       0.018863868 0.42574415 0.069751404 -0.10171753
0003b0 2e 2e 14 bd c2 97 b2 3d 0a c4 4b bc 35 11 75 3e
       -0.036176853 0.08720352 -0.012436876 0.23932345
0003c0 21 16 cf bd 85 ee 05 3f 65 5e e8 3d 60 b1 46 bd
       -0.10111643 0.52317077 0.11346129 -0.048509
0003d0 85 c8 e0 ba 63 c2 0b bf 9e 53 9a be 04 02 96 3e
       -0.0017149603 -0.54593486 -0.3014192 0.29298413
0003e0 30 98 ae bd 36 07 05 3e 2a 15 c7 3d c7 36 91 3e
       -0.08525121 0.12991032 0.097208336 0.28362104
0003f0 89 15 b2 be 11 34 45 3e d1 92 ad 3e 5b bc d9 3e
       -0.34782055 0.19258143 0.33901075 0.42526516

embed.lin1.weight f4 [8, 64]
000000 64 9d 85 be c0 e8 1e 3c a6 89 c7 ba 00 88 63 3e
       -0.26096642 0.009699047 -0.0015223518 0.22219849
000010 0d e8 81 3c 22 92 55 be 0c 52 c7 3b 0c fb f9 bd
       0.01585772 -0.20856526 0.006082779 -0.122060865
000020 4f f2 2c 3b c7 85 64 bd 7b 6d 40 3e 88 15 47 be
       0.0026389544 -0.055791643 0.18791763 -0.19441807
000030 01 f1 4e be a2 88 b4 3c b4 fd 23 3d 04 d7 77 bd
       -0.20209123 0.022037808 0.040036872 -0.06050779
000040 2c d9 aa be d1 24 7b be 75 5c 43 3e 2f b2 0e 3e
       -0.33368814 -0.24525763 0.19078238 0.13935159
000050 d3 48 d7 bd 0d af 78 3e 61 f7 7d be 12 6e bc bd
       -0.10511937 0.24285527 -0.24801399 -0.09200682
000060 d6 34 02 be 1f d5 8d 3d 48 cc 33 3d 0d a9 0a be
       -0.12715468 0.06925415 0.04389599 -0.1354105
000070 ea 35 26 be 60 61 cc 3b f0 c0 0a bd cf 81 38 3d
       -0.16231504 0.006237194 -0.033875406 0.04504567
000080 42 dd a8 bd 78 88 31 be af eb 0d 3c 9d 5b 7b 3b
       -0.082453266 -0.17337215 0.008662148 0.0038354166
000090 0f 77 0b 3d 51 e1 bb be e6 fe 2c be 59 8f 4e be
       0.03404909 -0.3669534 -0.16894111 -0.2017187
0000a0 cf 48 c0 bc 98 79 de bd 4d 73 6e 3d 4e 3d 6e 3c
       -0.023472218 -0.10863036 0.05821543 0.014540983
0000b0 fb ad ab bd 1a 9e 67 3e d6 d2 4d bb 61 ff 4f 3d
       -0.083827935 0.22618905 -0.0031406186 0.050780658
0000c0 8b 7b 64 3d 2f 43 23 3d 4a 33 41 3e 8d f2 f2 3c
       0.055781882 0.039858993 0.18867221 0.029656673
0000d0 da 56 64 bc 82 60 da bd 2e 22 92 be 95 a5 7e 3e
       -0.013936723 -0.10662939 -0.28541702 0.24867852
0000e0 2c 9f 5f be 50 b1 88 bb 94 81 6f bd 0c 61 a0 bd
       -0.21838063 -0.004171528 -0.058473185 -0.0783101
0000f0 8d 45 26 3d b6 1a ff bd 5f 02 b7 3d 0b a1 7a bd
       0.040593673 -0.124562666 0.08935999 -0.06118874
000100 3a 56 8c bb 28 cd a6 bd 7c 21 1b 3e 52 ed 86 be
       -0.00428274 -0.08144599 0.15149492 -0.26352936
000110 46 49 f5 be e6 81 2c 3e ea be b5 bd f0 8c b4 3b
       -0.47907466 0.16846427 -0.088743046 0.005509965
000120 16 fb 81 bd 3f 09 05 3f 0d 2d 74 be ff 07 da bc
       -0.06346719 0.51967233 -0.2384531 -0.026615141
000130 09 90 13 3e eb 4b ea 3c ba b1 0b be e8 3b ae bd
       0.14410414 0.028600654 -0.13642016 -0.0850752
000140 4e 97 27 3e c9 68 6d 3e 1a 55 3e be 9c 5d 1b be
       0.16366312 0.23184504 -0.18587151 -0.15172428
000150 91 1a 67 bc fb bf 19 3e 29 3d 84 3d 47 07 9c 3d
       -0.014105455 0.15014641 0.06456978 0.076185755
000160 2d a6 0c 3d 2f ea 47 3d 04 97 2b 3d 1b 4f 1c 3e
       0.034338165 0.04880732 0.041892067 0.15264551
000170 6a 95 30 3d 90 ea 98 3d 3c 29 03 3d ea f1 c8 bd
       0.043111242 0.07466614 0.032021746 -0.098117664
000180 04 f7 23 be 15 4a a1 bc 9d 5b b5 bd 85 61 44 3e
       -0.16012198 -0.019688645 -0.088553645 0.19177826
000190 91 cb 58 3c 20 2b 9d 3e 5d 1d d6 3d 0f ff 5b bd
       0.013232128 0.30696964 0.10454819 -0.05371004
0001a0 e1 12 b8 3d c7 e4 e2 3d d6 56 01 3e b9 72 05 bd
       0.08987976 0.11078792 0.12630782 -0.03258011
0001b0 06 05 33 be 2a eb ec 3e 33 6a ef bd 5d 8c 4b 3d
       -0.17482385 0.46273166 -0.11690178 0.049694408
0001c0 c0 10 20 be fd 08 09 bd da 3e 92 bc ae e8 08 3d
       -0.1563139 -0.033455838 -0.017852236 0.033425026
0001d0 58 34 04 be 1c 16 ed bd b4 b7 84 3d 10 d7 2f be
       -0.12910593 -0.11576483 0.06480351 -0.17171884
0001e0 30 c5 c9 3d 5b b4 90 3d 25 8f 96 3c 38 8a f6 bc
       0.09852064 0.0706565 0.018378804 -0.030095205
0001f0 aa 8a 0f be af 13 a9 bc 98 fb 7b bd 9d fe 0a 3e
       -0.1401774 -0.020639269 -0.061519235 0.1357369
000200 0e c7 e1 3d 1a 3e bc bd 81 95 b8 bd 04 3b 1e be
       0.11024295 -0.091915324 -0.090128906 -0.154522
000210 4c 4c 0d bf 70 df 84 bd 8d 6e a8 bd 59 e8 a4 bd
       -0.55194545 -0.0648793 -0.08224211 -0.08052129
000220 fa ad 4a 3d d3 bb 59 bd 8e f7 50 be c0 0c 05 3e
       0.049482323 -0.05315764 -0.20406935 0.12993145
000230 6b 6b d1 3c 7b fb f2 3c e7 a6 62 bd e0 44 1c be
       0.025563916 0.02966093 -0.05533495 -0.15260649
000240 f9 e6 eb 3e 7b 92 e0 3d 4e a9 8b be f0 be 3c be
       0.46074656 0.10965439 -0.27277607 -0.18432212
000250 a1 99 e6 3d 11 1d 20 3e 73 62 04 b9 eb bc 88 3c
       0.11259771 0.15636088 -0.00012625176 0.016691646
000260 d3 75 10 be 8d 0e 96 3d d4 3e 2a bd f6 14 41 3d
       -0.14107446 0.07326994 -0.041563824 0.04713913
000270 ed 47 d5 bb f0 92 7c bd 52 b2 c9 bd 46 99 b3 3b
       -0.0065088184 -0.061663568 -0.09848465 0.005480918
000280 cb 49 f2 bd 74 69 51 3e 52 db 13 be 8e 38 c6 3e
       -0.11830481 0.20450383 -0.14439133 0.38715023
000290 61 90 d6 bd 05 08 d5 3e 7d 27 cb bd b3 9f 3f 3d
       -0.10476757 0.4160768 -0.09919641 0.04678316
0002a0 5a b2 71 3e 04 f7 a1 bd 10 91 a1 3d 22 55 53 3d
       0.23603192 -0.079084426 0.078889966 0.05159486
0002b0 27 d8 9b 3c 3b 93 9b 3e ab aa e7 3c ce d3 a1 bd
       0.019023968 0.30385765 0.028279623 -0.07901727
0002c0 9c b0 af 3b 78 ee da 3c 26 3a 91 3d 71 e5 8c bd
       0.0053616296 0.026725039 0.07091169 -0.068797
0002d0 cb 4a a5 3d 1a 61 42 be 0c df c5 bc 3e d6 5b 3d
       0.08070906 -0.18982354 -0.024154209 0.053671114
0002e0 41 6f a6 bd 2d 80 85 3d 46 c0 7b bd 0f 81 2f 3c
       -0.08126689 0.06518588 -0.061462663 0.010711922
0002f0 d5 a8 d6 3c 54 5d e7 bc 98 75 fb bb 3f fc df 3b
       0.026203552 -0.028242745 -0.0076739304 0.00683549
000300 4e 0b 01 be a0 ab fe 3d 8d 1b d6 3d 7f 1d 49 bd
       -0.12601969 0.124350786 0.10454474 -0.049100395
000310 14 73 92 3e 50 a8 b8 3c 5e 5d 48 bc ed a9 91 3e
       0.28603423 0.022541195 -0.012229292 0.28449956
000320 b7 4a 00 3d 0d 25 e2 3e 96 b8 17 3e 55 41 d5 bd
       0.031321254 0.44168893 0.14816508 -0.10412852
000330 9d 87 97 be 26 ff 9b bc eb 13 04 3d a3 d2 90 3d
       -0.29595652 -0.019042563 0.032245558 0.07071426
000340 bb 4c 84 be c6 03 28 be 5e ee 78 3e 63 7b 62 3e
       -0.2583979 -0.1640769 0.2430968 0.22117381
000350 27 f7 c4 3d 67 c0 5c 3e 17 bc c6 3b 1c 03 f9 bc
       0.09617453 0.2155777 0.0060649025 -0.03039699
000360 a0 2a 81 3d 09 a4 fc bd 60 1c 78 3c 48 9f 2f 3e
       0.06306958 -0.12335975 0.015143484 0.17150605
000370 d3 4a a2 bc a8 22 38 bd 88 de f0 bd 86 38 fa 3d
       -0.01981107 -0.044954926 -0.117611945 0.12217812
000380 ff e2 d7 bc be 62 db bc c2 23 00 3e 46 ef 10 be
       -0.026353357 -0.026780482 0.1251364 -0.14153776
000390 b8 89 83 bc 30 ce cf bd 21 cb e9 bd 39 d2 36 3c
       -0.01605688 -0.10146749 -0.11415697 0.011158519
0003a0 4a 0b 59 bd d3 e8 93 3d 62 91 0b bd e8 3f 30 bd
       -0.05298928 0.07222142 -0.034074195 -0.043029696
0003b0 86 a5 36 bd 13 de b6 3e 11 73 7b 3a 94 5d 5c 3c
       -0.04459145 0.35716304 0.00095920364 0.013450045
0003c0 cd f0 56 3d a0 4e 91 bc 56 7f 22 3d 4e e2 6a bd
       0.05247574 -0.017737687 0.03967222 -0.057344727
0003d0 68 10 1a 3d 3b 10 d8 3d eb 0e bd bd d2 68 a1 3e
       0.037613302 0.10549971 -0.09231361 0.31525284
0003e0 e3 10 8e be ba 3a 98 bc 11 66 fe 3c 80 7c ef 3d
       -0.2774726 -0.01858269 0.031054528 0.11693668
0003f0 dd 21 de 3d e7 26 8c 3d a6 35 78 3d 34 25 e3 bd
       0.10846303 0.068433575 0.060598038 -0.1109108

embed.lin1.bias f4 [8]
000000 e9 7a ec 3d b3 d3 1d 3d 01 cf 06 bd 2a a3 cb bd
       0.11546881 0.03853197 -0.032912258 -0.099432305
000010 65 44 cc 3c 0f 69 b5 3d 73 64 9c 3d 5d 29 8d 3d
       0.024934957 0.08857929 0.07636347 0.06892655

embed.conv2.att_src f4 [1, 8, 8]
000000 cf 80 7c bf 7b 71 f1 3b 21 88 6a bf 84 a2 f3 bc
       -0.98634046 0.0073682643 -0.91613966 -0.02974058
000010 30 b9 28 bf 8c 31 9e 3f 77 93 80 be 27 8a 76 bf
       -0.65907574 1.235887 -0.25112507 -0.96304554
000020 91 3c 8e 3f be c1 3d 3f 9a 6c 2e bf d4 a8 e6 bc
       1.1112233 0.7412375 -0.6813446 -0.028156675
000030 4b c2 40 3f 02 f1 26 bf ee 05 bc bd ae c9 1b bf
       0.7529647 -0.652115 -0.091808185 -0.60854614
000040 a7 94 4b 3e 99 a8 67 3e c3 4e 14 3d 82 af 4a 3f
       0.19880925 0.22622909 0.036207926 0.79174054
000050 74 99 e3 be 87 13 7f 3f 97 56 f5 bf 9c 65 2c c0
       -0.44453013 0.9963917 -1.916705 -2.6937017
000060 f1 82 d2 3f 7a ba 91 3f 92 18 e2 bf 32 1d d8 be
       1.644621 1.1385033 -1.7663748 -0.42209774
000070 22 45 c7 3d d2 bc 1f be a4 8f 80 3f 1f 0c 68 be
       0.09729983 -0.15599373 1.0043836 -0.22660874
000080 75 30 e7 bf a4 f9 cc 3f 3c 91 d6 3f b3 f0 83 3f
       -1.8061663 1.6013684 1.6763072 1.030783
000090 09 c7 8d bf d6 11 f9 3f bd 87 99 bf f0 4d a7 3f
       -1.1076366 1.9458568 -1.1994549 1.307066
0000a0 52 1f d3 3e 19 e8 4d 3e ee 5e 93 3e fa 41 97 be
       0.41234833 0.2010807 0.28783363 -0.29542524
0000b0 94 59 72 3e c9 de 65 3e eb 6c df 3f 66 61 36 be
       0.23666984 0.22448267 1.7455114 -0.17810592
0000c0 73 e9 36 3f 0e 51 ab bd 9e 7d dc 3e c2 a7 ed 3e
       0.71449965 -0.08365069 0.43064588 0.46417052
0000d0 3d 48 23 be f8 49 84 3d 30 c5 e4 3e e6 86 99 be
       -0.15945525 0.06459421 0.44681692 -0.29985732
0000e0 e4 4b 8c 3f cb bc 99 be 4b 78 cb bf c9 41 e9 be
       1.096066 -0.3002685 -1.5896086 -0.45558003
0000f0 42 b7 11 bf b1 ad 5a bf 2f ab 08 c0 62 8f e6 3f
       -0.56920254 -0.8542128 -2.1354482 1.8012507

embed.conv2.att_dst f4 [1, 8, 8]
000000 c2 72 66 be 56 a6 4b 3d dd 94 38 bf 46 54 23 bf
       -0.22504714 0.049719177 -0.7210215 -0.63800466
000010 64 c2 17 be fb 98 19 3e b4 f7 bc 3e d4 bc 9b 3e
       -0.14820248 0.14999764 0.36907732 0.30417502
000020 07 1a 05 3e ad 0d 08 bf 3a eb 05 bf 9e b8 9e be
       0.1299821 -0.5314587 -0.5231205 -0.31000227
000030 f1 f6 ef 3e 11 b0 e7 bd 47 58 53 bd af 0a ad 3e
       0.4686809 -0.11312879 -0.05159786 0.33797213
000040 0d 55 c8 be 4d 9e c0 3e a4 ae 94 bd 56 26 56 bd
       -0.3912739 0.37620774 -0.072598726 -0.052282654
000050 c3 52 c0 3d 07 67 03 3f 99 55 9a bf 8b 01 19 bd
       0.093907855 0.5132908 -1.2057372 -0.037354987
000060 79 33 35 be 2c 20 09 3f 06 d2 02 bf 41 ef 29 bf
       -0.17695417 0.53564715 -0.5110172 -0.663807
000070 75 df 05 3f 6b ca 01 3f 09 ef 1e 3d 58 0a a4 be
       0.52294093 0.5069949 0.03880218 -0.32039142
000080 13 2f 1f bf 03 2f e1 3e 1a 04 c6 be 2d cd d0 3e
       -0.62181205 0.4398118 -0.38675004 0.40781537
000090 13 62 40 bf 3d 89 90 be 87 eb 1f 3e 9a 9e 33 bf
       -0.7514965 -0.28229704 0.1561719 -0.7016388
0000a0 a8 69 d9 3c df 2d ff 3e ff 21 e6 3e 5d 21 4e bf
       0.026539639 0.49839684 0.44947812 -0.8051966
0000b0 8d b0 84 3e e2 77 79 be 22 04 4d 3d bb 67 58 3d
       0.25915948 -0.24362138 0.05005277 0.0528333
0000c0 42 26 b3 3e 60 ae 7e be ca f0 f9 3e 77 67 23 3f
       0.34990126 -0.24871206 0.4881652 0.6382975
0000d0 c9 f8 a4 3e 7d 8a fa 3d 88 5c ae 3e 3b 1f 0f bf
       0.32221058 0.12233446 0.3405497 -0.5590703
0000e0 f3 7b 83 3f 0a 19 7b bf b2 c3 7a be e5 02 55 3f
       1.0272201 -0.9808508 -0.24488714 0.8320754
0000f0 5a 5c 87 be f2 6f 39 bf f7 47 20 3f 71 de d3 3e
       -0.26437646 -0.7243644 0.6260981 0.41380647

embed.conv2.bias f4 [64]
000000 f7 26 3f bd 08 b1 9a bd c6 ea 0d 3c db 69 97 bd
       -0.04666802 -0.07553297 0.008661931 -0.07393237
000010 23 a7 8b bd 76 ad 91 bd cf 26 7d bd a0 17 0f be
       -0.06818988 -0.07113163 -0.06180459 -0.13973856
000020 d8 11 90 bd ab 55 7b bd 3d 3b ad bd 00 32 0c be
       -0.070346534 -0.061360996 -0.084585644 -0.13690948
000030 fe 4a 14 be f7 d5 45 bd e8 cf 0e bd 7a e4 01 bd
       -0.14481732 -0.048299756 -0.034866244 -0.031712033
000040 73 c6 e1 bc 52 86 37 bd de 77 e3 3b 1b f0 18 3d
       -0.027560448 -0.044805832 0.0069417795 0.037338357
000050 a3 24 89 3c da 4a 51 bb 86 d7 db bd 46 8e aa bd
       0.016741103 -0.0031935484 -0.10734467 -0.08327918
000060 a5 45 16 3d 2d 73 35 bd 82 22 5c bc 0b d6 a0 bd
       0.036687512 -0.044299293 -0.013435962 -0.078533255
000070 6c e0 41 3b 4c 1a 4a bd bf c5 84 bd 99 5e 4e bc
       0.0029583229 -0.049341485 -0.064830296 -0.012595796
000080 eb 8f 85 3c d0 94 d8 3c 41 94 8c bd 6a 87 06 be
       0.016303977 0.026438147 -0.06864215 -0.13137594
000090 a7 b7 1c bd b9 f6 06 bd e7 26 94 bd 31 cb 5f be
       -0.038261082 -0.032950137 -0.072339825 -0.21854855
0000a0 04 d3 c0 3c c5 7f ec bb 5b 22 dd bd be 3d 30 3d
       0.02353812 -0.0072173798 -0.107975684 0.043027632
0000b0 ff 7d 81 bd d2 71 c1 bd e3 79 73 be cb 0a 3e bd
       -0.0632286 -0.094455376 -0.23776965 -0.04639701
0000c0 40 73 ce bd f2 26 9d bd d4 a8 d4 bd 35 ba a9 bd
       -0.10080576 -0.07673444 -0.10383764 -0.08287469
0000d0 24 5f 30 bd 58 44 a4 bd ff 95 54 3c 82 db b3 bd
       -0.043059483 -0.08020848 0.012975215 -0.08782102
0000e0 28 4f 9b 3c fe af b2 bd 47 db 25 bd 67 ac 6b bd
       0.018958643 -0.08724974 -0.040492322 -0.057537463
0000f0 21 bb 43 3c 28 ea fc 3b 31 4e a8 bd 20 aa 60 bd
       0.0119464705 0.0077183433 -0.08218039 -0.054849744

embed.conv2.lin.weight f4 [64, 8]
000000 5b 00 34 3c 98 b5 cb bd 84 e6 b1 3e de 9e 6a be
       0.010986413 -0.09946746 0.34746182 -0.22912166
000010 bd 73 14 be b0 28 b1 be 52 31 f9 3d 92 9c 90 3e
       -0.14497276 -0.34601355 0.1216761 0.28244454
000020 7d 74 33 be 37 65 26 be 24 99 7a 3d 32 75 47 3d
       -0.17524906 -0.16249548 0.061181203 0.04869575
000030 a6 d4 0e 3c a7 96 12 3e fb 22 ec bc 03 21 74 3d
       0.0087176915 0.14315282 -0.028825274 0.059601795
000040 70 a3 07 3e 44 fd d4 bd b1 4e 7a 3e 6d 2d b0 bd
       0.1324594 -0.10399869 0.24444081 -0.08602414
000050 ee e5 56 bd 05 16 3e bd d5 34 96 bd 57 0d 9e 3e
       -0.05246537 -0.04640772 -0.07334296 0.30869552
000060 66 92 c8 3d 95 64 1c be e4 7c e4 bd c2 1a 0d 3c
       0.09793548 -0.15272744 -0.111566335 0.008612337
000070 ee 16 41 be e9 b9 df be 63 62 41 bd 0a 31 4f 3e
       -0.18856403 -0.43696526 -0.04721297 0.2023355
000080 d2 23 91 3d 89 a6 a1 3e db 38 64 3e 69 de 1b 3e
       0.0708691 0.3157237 0.22287314 0.15221561
000090 25 36 46 bd 88 96 d2 bc 99 0b 82 3e dd cd 1a be
       -0.04839148 -0.025706545 0.25399473 -0.15117593
0000a0 71 90 46 be 22 05 05 be b4 8f f4 38 55 09 01 3e
       -0.19391038 -0.1299024 0.000116615935 0.12601216
0000b0 c4 f5 67 3d a6 53 0a 3e a7 da 78 3d 72 9e 8a 3c
       0.056630865 0.13508472 0.060755398 0.016921256
0000c0 93 b4 49 3e b3 32 3e 3d 5e dd 81 bd ff 3a 79 be
       0.1969779 0.04643507 -0.063410506 -0.24338911
0000d0 f0 f3 6d 3e 17 b7 aa be e0 86 83 be 47 b6 41 3e
       0.23237586 -0.3334281 -0.2568884 0.1891719
0000e0 73 5e 55 3e 2d ce 61 3e 9e ee 4c 3d bf ee a0 3e
       0.20836811 0.22051306 0.05003225 0.3143215
0000f0 e1 7d 9b 3e 0b 90 87 3e 80 55 af be 8d b0 06 3e
       0.30369475 0.26477084 -0.3424492 0.13153286
000100 7e 05 07 3c 50 6a a9 bd c6 c0 2a be 0d 32 4c 3e
       0.0082410555 -0.082722306 -0.166751 0.19940968
000110 7d a3 3f 3e ad 78 ba be 47 8b 6e bd 79 87 4f 3d
       0.1871471 -0.36420193 -0.058238294 0.050666306
000120 15 28 4a 3d e8 71 7b 3d 9a 21 d4 bd 40 42 85 bd
       0.04935463 0.061387926 -0.103579715 -0.06506777
000130 c8 8c 2a 3e 0b a4 f6 bd 93 07 03 be 4a e8 c8 3d
       0.16655266 -0.120430075 -0.12795858 0.098099306
000140 ce 9b 38 be f3 84 73 3e 27 61 c9 3d b0 db 19 3e
       -0.18028185 0.23781185 0.098329835 0.1502521
000150 43 09 9a 3d c5 97 85 be 46 f3 40 3d e7 6f 57 bd
       0.07521298 -0.26092353 0.047107004 -0.052596953
000160 bd 07 63 be e9 ee 60 3e 76 4f 52 bd a9 5c 53 3e
       -0.2217092 0.21966137 -0.05134531 0.20640816
000170 9c 83 0a 3e ac dc 8c be 73 70 3d 3e 7d 69 0d 3e
       0.13526767 -0.2751211 0.18499927 0.13809772
000180 29 cc db bd 98 a8 06 be f3 cb 84 3d 31 4e a1 3e
       -0.107323 -0.13150251 0.06484213 0.31504968
000190 ad 0f b7 be 26 f4 d7 be 91 32 cc be bb 5b d9 bd
       -0.35754147 -0.42178458 -0.3988233 -0.10613199
0001a0 ad e3 b2 bd 65 42 2b 3e 7c 0c ca 3e b3 53 ed 3c
       -0.08734832 0.16724546 0.3946265 0.028970575
0001b0 90 bd 8e 3c 3b 16 da bd 87 7f 2b 3e d8 46 8f bd
       0.017424375 -0.106487714 0.16747867 -0.06995934
0001c0 0b 4b c4 3e 2c 60 e2 3d d3 4d 87 be 96 3f 11 be
       0.38338503 0.110534996 -0.26426563 -0.14184412
0001d0 25 c6 21 3e 8a 22 3b be a4 96 cc be 2e e5 a5 bd
       0.15798242 -0.18274894 -0.3995868 -0.08100353
0001e0 fc 52 c3 3d fa 08 4e 3e 86 3c 94 3e 70 bd 69 3c
       0.095373124 0.20120612 0.28952426 0.014266357
0001f0 b4 91 64 be 6c 59 1f be d3 e8 01 3e 39 f7 7f 3e
       -0.22321206 -0.15561455 0.12686472 0.24996652
000200 d3 8a 62 be d9 49 98 3e 9b de c6 bd 01 b4 42 be
       -0.2212327 0.2974384 -0.097104274 -0.19013979
000210 9e 87 8c 3d de 27 60 be 10 5e a6 bd 69 28 7c 3d
       0.068618044 -0.21890208 -0.0812341 0.061561976
000220 d1 1b da bd 0e 4a b0 3d 6f 43 14 be e4 71 43 3e
       -0.10649837 0.08607875 -0.14478849 0.19086415
000230 d4 34 e1 bc 7b 7d f1 3d 01 5a 2f bc 8d d2 e7 3d
       -0.02749101 0.117915116 -0.010702611 0.11319456
000240 fc ea f2 3d b9 33 a2 3d b7 b0 ae be a0 bc b8 3d
       0.11861226 0.079200216 -0.34119198 0.09020352
000250 0d d6 ab bc 84 81 93 be 4b 14 ee 3d 67 a0 23 bd
       -0.02097609 -0.2880975 0.11624964 -0.039947893
000260 c6 53 fa 3e 6e 93 85 bd 0e ac df 3d 7a e1 e3 3d
       0.4889204 -0.065222606 0.10921489 0.111269906
000270 58 39 04 3d e9 dc 15 3e a1 75 b7 be c7 55 0c be
       0.03228125 0.14635052 -0.3583193 -0.13704596
000280 9e b5 02 3e c0 c5 a5 3e 7d 7c 4f 3f 77 69 0b be
       0.12764594 0.32377434 0.8104933 -0.1361445
000290 6d 53 9b bd ef e6 97 3d 6d 5e a5 be 6a 1c 2b be
       -0.075842716 0.07417094 -0.32298604 -0.16710058
0002a0 ff 74 36 bd 6f d7 53 3e 7a cd 91 bc 2a 32 8a bd
       -0.04454517 0.2068765 -0.017798174 -0.06747849
0002b0 12 4c 8a bd f0 3e ba 3d d4 eb e7 bd 45 61 c9 3b
       -0.067527905 0.090940356 -0.113242775 0.0061456286
0002c0 e3 52 50 be 4d ec 57 3d f9 0d d7 3e 28 7a 16 bd
       -0.20344119 0.05271559 0.42002848 -0.03673759
0002d0 96 8d 47 3d 3c a7 0a bf c4 35 59 be a1 f6 94 3e
       0.04871901 -0.5416143 -0.21211916 0.29094413
0002e0 d6 b6 31 be 26 61 de 3d eb e6 dc 3c c8 62 bd 3d
       -0.17354903 0.10858373 0.026965579 0.09247357
0002f0 cf e7 6f 3e 95 e0 62 be 2d df 81 3e 19 30 1b 3e
       0.23428272 -0.22155984 0.25365582 0.15155067
000300 c3 ae 8d 3e 7d e1 12 be 10 a0 81 be ed 41 f9 3d
       0.27672395 -0.1434383 -0.2531743 0.121707775
000310 be f2 be bd 59 8c a5 3c 42 ac 5a be 69 38 62 be
       -0.09323643 0.020208525 -0.21354774 -0.22091831
000320 a1 f4 5f be c4 4d 3d be be 87 10 3e e1 3b 50 3c
       -0.21870662 -0.18486696 0.14114282 0.012709589
000330 7f b6 a3 3c 63 58 24 3e 2b 94 39 be ec a0 9c bd
       0.019984482 0.16049342 -0.18122928 -0.07647881
000340 5f 23 6c be 48 83 de 3d c3 50 ed 3e b4 ce c2 bd
       -0.23060368 0.10864884 0.4635068 -0.09512082
000350 a6 4f c5 3c df 80 a1 be bc 78 9f bd 3e 2f 69 3e
       0.02408583 -0.31543633 -0.077867 0.22771928
000360 25 79 b5 bd 61 d3 2f 3e 5f 65 2f be 02 25 f6 bc
       -0.08860997 0.17170478 -0.17128514 -0.030046944
000370 5a 83 42 be 69 14 c1 be cc 2f 7e be 3d b9 86 3e
       -0.18995419 -0.37710884 -0.2482292 0.263132
000380 2c 18 04 3e 33 a6 92 bd 8a 48 46 be 23 9b 7c be
       0.12899846 -0.07160606 -0.19363609 -0.24668555
000390 70 d2 ac bd 2e d2 a6 be 1a e1 69 3d 63 30 64 bb
       -0.08438575 -0.3258223 0.05709944 -0.003481888
0003a0 47 99 da bd b1 ec 77 3e 94 e3 16 be bd 65 0f be
       -0.106737666 0.24211384 -0.14735252 -0.14003654
0003b0 26 9f b9 3d 05 f8 83 bc bb 6c 54 be af 59 be 3d
       0.09063558 -0.016109476 -0.20744602 0.092944495
0003c0 b6 4a 7b 3d 32 7c d6 ba df ee 24 be ad 72 19 be
       0.061350547 -0.0016363917 -0.16106747 -0.14985152
0003d0 89 0f 1d 3e 5b b1 17 be 62 06 04 be 9c 2e 66 be
       0.15337957 -0.1481375 -0.1289306 -0.22478718
0003e0 f5 98 68 3e 52 85 66 be 10 87 f6 3d a1 c6 9d 3e
       0.22714598 -0.22511795 0.1203748 0.30815604
0003f0 86 17 a6 bd ae 2e ab 3d ac 2f c3 be 77 0f 3a 3e
       -0.081099555 0.08358513 -0.38122308 0.18169962

embed.lin2.weight f4 [64, 64]
000000 9b 73 41 bd 81 d5 91 3d c8 e1 38 be 68 90 a6 bd
       -0.04722939 0.07120801 -0.18054879 -0.08133012
000010 f8 73 21 3d 20 7d f3 3c ba a1 2a be 9b 70 38 be
       0.039417237 0.02972275 -0.16663256 -0.18011706
000020 5a eb 1e be 82 68 4b 3d 5b ef b3 bd 8e d6 8f 3d
       -0.15519467 0.049660213 -0.08785888 0.07023345
000030 a6 2d 1d 3e 52 c0 12 3b fc a4 ba bd db 3c cf bc
       0.15349445 0.0022392464 -0.091134995 -0.025297573
000040 77 83 2e 3e 4d b1 fc 3b 88 b2 02 3e 93 fe 40 3c
       0.17042337 0.0077115656 0.12763417 0.011779445
000050 ef a0 56 be 55 06 be bd df d4 9c 3c ed f2 c3 3d
       -0.20959829 -0.092785515 0.019144474 0.09567819
000060 89 93 5f 3d 6c 88 00 be 15 92 c8 3d da 23 47 3c
       0.05458406 -0.12552041 0.09793488 0.012154544
000070 38 f9 e5 3d c3 4b 29 bd 01 a7 87 bd 13 0b a2 bd
       0.11229175 -0.041332018 -0.0662365 -0.079122685
000080 26 cf c7 bd d9 4c 94 3c 5b fa 1e 3d 6f 61 5f be
       -0.09756307 0.01810305 0.038812976 -0.21814512
000090 5b cb 99 bd 4f 97 55 be 9f a1 99 3c 76 42 4d 3d
       -0.0750949 -0.20858501 0.018753825 0.05011221
0000a0 05 6d 65 3d a2 47 88 bc 41 be 9f 3d 13 e0 4e bd
       0.056012172 -0.01663572 0.0779996 -0.050506663
0000b0 71 63 ab bd d7 e6 08 be 71 df 62 3c b6 de ed 3d
       -0.08368576 -0.13369308 0.013847218 0.11614744
0000c0 da 1f ec 3c 83 88 f2 bb a4 36 4d 3d b7 67 56 3c
       0.028823782 -0.0074015274 0.050100937 0.013086251
0000d0 31 3f e5 bd 7a 74 74 bd 16 52 a3 3d 08 14 b3 3d
       -0.111936934 -0.059681393 0.07974641 0.08744055
0000e0 27 2b dd bd c1 1b 82 bc 63 fb d4 3b 58 e2 d7 bd
       -0.10799246 -0.015882375 0.006499694 -0.105412185
0000f0 b9 9a c1 3d 04 50 b2 3d ed 31 c0 3d 67 ad 99 3d
       0.09453339 0.08706668 0.093845226 0.07503777
000100 b8 ca b0 bc 31 96 b3 3d 6e 9f c6 3d fd 43 23 be
       -0.021581039 0.08768881 0.096983775 -0.15943904
000110 33 e6 4d 3e 80 8d 28 3c 06 4e 0e be 73 f3 88 be
       0.20107345 0.0102876425 -0.13896951 -0.26748237
000120 27 cd f1 bd d3 12 0a bb 4a ba 8a 3b f1 83 6e bd
       -0.11806708 -0.002106835 0.004233633 -0.058231298
000130 b2 cb 76 3d 59 97 67 ba 64 26 a2 3d 4e 22 84 bd
       0.060252853 -0.0008834503 0.07917479 -0.064518556
000140 a5 cc a9 3d 3d 86 d9 3d 81 e4 bb 3d 6b fa 25 3d
       0.08290986 0.10621307 0.09174443 0.04052202
000150 f6 be e4 3d 08 1a 4a bd d6 74 7c 3d e9 b1 d6 3d
       0.111692354 -0.04934123 0.06163486 0.104831524
000160 c3 07 be 3c a2 6a d7 3d e5 de 20 3c 57 fd 3c be
       0.02319706 0.105183855 0.009818767 -0.18456016
000170 6a a7 68 3e 76 f4 23 be ae 7b a5 3d 73 29 0a 3e
       0.22720113 -0.16011223 0.08080231 0.13492374
000180 97 dc 20 3d cf 2c 88 3e 63 7e 9a 3d 51 16 98 be
       0.03927287 0.26596686 0.075436376 -0.29704526
000190 4a 0d 89 bd 9b ed 7b be b4 7b 6f bd af c7 23 bd
       -0.06691988 -0.24602358 -0.058467582 -0.039985355
0001a0 bd 59 a4 3e 4b fe 57 bd a8 5c ae 3c 04 b5 41 be
       0.32099715 -0.052732747 0.021284416 -0.18916708
0001b0 c0 14 7a 3d 8b 0c ff 3c 8c 8d 6b bd d4 18 87 3c
       0.061054945 0.03113391 -0.057508036 0.016491331
0001c0 79 a6 f8 3c 16 01 c9 bd 5f 09 c6 bd 2f 3b 5d 3d
       0.030352818 -0.0981466 -0.09669756 0.05401152
0001d0 70 f4 c4 3d 37 3d 6c 3c 26 b0 5e 3c d2 ea 8d 3d
       0.09616935 0.014418892 0.013591802 0.06929554
0001e0 15 5c a1 3d 0a 6a b2 bd c1 e6 75 3c 2e e1 8d bd
       0.078788914 -0.087116316 0.015008629 -0.06927715
0001f0 0a 78 21 bc 32 0d 31 3e 48 1d 61 bd dd 94 de 3d
       -0.00985528 0.1729019 -0.054959565 0.10868237
000200 53 4f d0 3c 90 06 cd 3d 02 f8 3a 3e 8d 45 1a be
       0.02542845 0.10011017 0.1825867 -0.15065594
000210 a3 ad cf 3d 33 e2 82 bc 48 36 87 bd 96 90 1c bf
       0.101405405 -0.015977 -0.0660215 -0.6115812
000220 1c 70 16 be ab d8 38 bd 8a 55 77 3d 29 a9 ae 3d
       -0.14691204 -0.045128506 0.06038431 0.085283585
000230 ae d1 44 bd 66 6b bc 3d 63 9a 72 bb 60 b8 c2 bd
       -0.04805153 0.09200172 -0.0037018291 -0.09507823
000240 02 ef 6d bd 0a a9 ad 3d d3 8a ae 3d a7 fa 8d bd
       -0.058089264 0.08479507 0.08522572 -0.06932574
000250 c6 59 e7 bc 35 0f e2 bd 19 31 18 3c 64 a5 98 bd
       -0.02824105 -0.11038057 0.00928905 -0.07453421
000260 dc 9f 2a 3d 4a 56 d5 bc 9e 49 25 bc 30 d5 26 be
       0.04165636 -0.026042122 -0.0100883525 -0.16292262
000270 1b 6b 29 3d 29 45 d0 3d f0 b8 3b 3c 98 f3 0d 3e
       0.04136191 0.10169441 0.011457667 0.13862455
000280 67 be c7 3d ec c0 17 3e bc a7 8e bd 7c df a1 be
       0.09753113 0.14819688 -0.069655865 -0.31615818
000290 84 48 d0 bd 7d 84 fe bd 69 f4 63 bd 30 d7 09 be
       -0.10170081 -0.12427614 -0.05565301 -0.13460994
0002a0 17 0e 30 3e b4 78 9b 3d 21 a9 e6 bd aa 8d 89 3d
       0.17192875 0.07591382 -0.112627275 0.067164734
0002b0 b6 c2 95 bc 64 4f 87 be 67 49 35 bd f4 e8 2e 3d
       -0.018281322 -0.26427758 -0.044259455 0.04270263
0002c0 6c 04 6f bd 1a bf 21 bd a9 8b 18 3e 84 c9 02 3d
       -0.058353826 -0.03948889 0.14897026 0.03193046
0002d0 57 e5 d9 3d 07 7c a9 bc e8 7b 91 3d 43 43 97 bc
       0.10639446 -0.020689024 0.07103711 -0.01846469
0002e0 2c f9 de 3d 9e fb d8 bc a5 ad b8 3d aa e4 de bd
       0.108873695 -0.026487168 0.09017495 -0.10883458
0002f0 42 b0 8e bd 6e 52 dc 3c ab 4f 09 bd fc e5 a1 3d
       -0.06967212 0.026894774 -0.033523243 0.07905194
000300 36 c2 da 3d cd 60 c3 3d 44 89 a1 3e 46 00 b2 3d
       0.10681574 0.09539948 0.31550038 0.086914584
000310 29 5c 85 3d 77 d9 a5 3d ad 59 4c 3d e0 e7 b5 bd
       0.06511719 0.08098119 0.04989021 -0.08882117
000320 ed 06 48 bd c1 17 4c bd a9 d0 ae 3d 2d bf f8 bd
       -0.04883473 -0.04982734 0.085358925 -0.12145839
000330 a5 29 47 3d 98 15 f6 bc 77 d8 b1 3d 2c 60 ae bd
       0.0486237 -0.030039594 0.086838655 -0.08514437
000340 75 fa ca bc 83 dc 41 bd b9 27 c8 3d 2b 3f 81 bd
       -0.02477763 -0.047329437 0.097732015 -0.063108765
000350 97 c5 70 bc 8b 37 05 3d d8 46 46 bd 65 03 b8 3c
       -0.014695547 0.032523673 -0.048407406 0.022462556
000360 e4 1c bd 3d 90 10 2e 3c 35 88 2c 3d ba 30 00 be
       0.09234026 0.010624066 0.042122085 -0.12518588
000370 fc 46 57 bc 0f 3d a7 bd 1c c5 81 3d 8b 57 0b 3e
       -0.013139483 -0.08165943 0.06336424 0.13607614
000380 9f ae 69 3d 45 ee 2e 3e 61 b8 7a bd 1c af 2d be
       0.057051297 0.1708308 -0.061210994 -0.1696133
000390 0c ad 33 3d 59 99 69 3e 0d 80 fb 3d 30 58 ad bd
       0.043866202 0.22812404 0.12280283 -0.08464086
0003a0 9b df 9e b9 d7 fa 12 3e ef 96 4b 3c dd f8 f8 3d
       -0.00030302707 0.143535 0.012426122 0.12156842
0003b0 03 a5 95 bd 66 9c df 3d 4f d0 0d bd 1e e4 b9 3d
       -0.07306864 0.109185025 -0.034622487 0.09076713
0003c0 41 9b a6 3d 9d af a1 3d 48 f9 81 bd f3 04 ea 3c
       0.08135081 0.07894824 -0.06346375 0.028566813
0003d0 7d 4b 0a bd 8a 54 4d ba f4 16 04 3d 5b 49 9e bd
       -0.033763397 -0.00078327267 0.032248452 -0.07728835
0003e0 2e 24 b9 3d 89 23 85 bd 06 74 93 3d d0 f8 01 bc
       0.09040104 -0.065009184 0.07199864 -0.007932857
0003f0 76 d4 a9 3d 84 c5 d9 3d 4e 73 23 bc 4e 34 3d bc
       0.08292477 0.10633376 -0.009976221 -0.011548115

embed.lin2.bias f4 [64]
000000 c4 3f d9 bb 0f 5d 82 bc 66 04 b5 bd 72 ed c7 bd
       -0.006629916 -0.015913514 -0.088387296 -0.09762086
000010 a1 35 2d bc 3e 64 06 3d cf e3 67 3d c8 95 bf 3c
       -0.010571868 0.032810442 0.05661374 0.023386851
000020 01 15 96 bd 16 7d 20 bd 26 ac 04 be 99 d5 6b bd
       -0.07328225 -0.03918179 -0.12956294 -0.05757675
000030 49 69 d8 3c b5 1f a7 3c 69 e5 49 3d 58 0a e9 bc
       0.026417391 0.020400861 0.04929105 -0.028447315
000040 9f 37 b1 bc f2 c5 ea bc 78 2a 9d 3b 19 36 85 3c
       -0.021632968 -0.02865884 0.0047963224 0.016261147
000050 ae a3 82 3d 5b 0f 1e bd f0 ed f4 3c 8d b0 fa 3b
       0.06378876 -0.038588863 0.029898614 0.007650441
000060 68 06 48 bd 33 d1 34 3d 76 70 7a bd 55 c2 35 bd
       -0.048834234 0.04414482 -0.061142407 -0.044374783
000070 54 8b 00 3d 39 1d 4c bd 69 c8 99 bd 6b 32 22 bd
       0.031382874 -0.049832556 -0.07508928 -0.039598864
000080 a4 86 c7 3d f4 f0 27 bc 1c 9b 94 bd a0 a9 5f bd
       0.097424775 -0.010250319 -0.07256147 -0.054605126
000090 5f e1 7d 3b 76 69 11 3d 9e ff 07 be 3d 03 aa 3b
       0.0038739068 0.035500966 -0.13281104 0.0051883743
0000a0 47 30 be bc 62 f0 59 bd af dd b8 3d 3d cc c1 bc
       -0.02321638 -0.053207763 0.09026658 -0.023656959
0000b0 7d f8 65 3d 13 28 22 bd 23 84 88 bd a8 88 04 3d
       0.05614518 -0.039589 -0.06665828 0.032356888
0000c0 c7 e4 39 3d 49 62 46 3d 1d 35 43 bc 0a c9 97 bd
       0.045384195 0.048433576 -0.011914519 -0.07411392
0000d0 c0 d0 6d bd c1 72 92 bd dd 22 86 3d 61 25 a6 bc
       -0.058060408 -0.07150794 0.065496184 -0.020281496
0000e0 90 fa 21 bd 6b 65 75 bd ee f3 e9 3c 36 ea 5e 3d
       -0.039545596 -0.059911173 0.028558698 0.05442258
0000f0 9c 8b 58 3d 58 72 40 bd 10 43 44 bd f3 f5 7e bd
       0.052867517 -0.046984047 -0.04791552 -0.062246274

edge_conv.nn.0.weight f4 [8, 12]
000000 64 bc be 3e ea 83 c4 3e 0e 46 36 be 49 a7 d9 3c
       0.37253106 0.38381892 -0.17800161 0.026569026
000010 8e 16 41 3d 19 5f a8 3d ef 15 e2 bd f8 07 d6 be
       0.04714065 0.082212634 -0.1103934 -0.41802955
000020 3d ea 40 3d 60 25 23 be ee 2d 2e be 23 32 da bd
       0.047098387 -0.15932226 -0.17009708 -0.10654094
000030 94 bc 28 3f af 61 a6 3c 48 63 e4 bd eb 47 09 3f
       0.6591275 0.020310251 -0.11151749 0.53625363
000040 f2 fb 02 be e0 c5 8c 3c 5a 72 35 bf 07 23 cf 3f
       -0.12791422 0.017184198 -0.7087761 1.6182564
000050 32 92 94 bc ec ba a0 bd 99 60 0c bd 71 e6 46 3f
       -0.018136118 -0.078481525 -0.03427181 0.77695376
000060 33 01 1e be 44 04 22 be 6c 23 3d be ea ed a1 3c
       -0.15430145 -0.1582194 -0.18470544 0.019766767
000070 5e ed a8 3e fc 58 f5 bb e7 7f 6a 3f d7 71 03 3e
       0.32993597 -0.0074874144 0.91601413 0.12836395
000080 e0 9c bf be 4c 98 5e bd 73 f5 73 3e 2a 56 76 3f
       -0.37424374 -0.05434446 0.238241 0.96225226
000090 b6 a0 01 be 3a 9f e9 bd 40 27 7d be a8 56 92 bd
       -0.12658963 -0.11407323 -0.24722004 -0.071454346
0000a0 38 d7 43 3d 14 06 f4 3d 80 08 3f 3e 9c 5c ff bd
       0.04781267 0.11915222 0.18655586 -0.12468836
0000b0 e8 42 6b be f8 0a 25 bd e3 82 0d be 24 3f 1f bd
       -0.22974741 -0.040293664 -0.1381946 -0.038878575
0000c0 ad 22 57 3e c5 03 9c 3e bd 20 08 be f1 5a 15 be
       0.21009322 0.30471626 -0.13293739 -0.14585473
0000d0 af de 15 3e 1f 5f 96 bc 71 22 80 bf 62 f6 62 bf
       0.14635728 -0.018355904 -1.0010511 -0.886572
0000e0 37 e8 d3 3e 17 e7 87 be 67 59 10 3e 9b 71 5e bf
       0.41388103 -0.26543495 0.14096604 -0.868921
0000f0 52 94 39 be df d9 1a be f2 30 61 be 5c 12 27 be
       -0.18122986 -0.15122174 -0.21991327 -0.16315597
000100 80 ca 2b bd 14 db d8 bd 44 06 77 3e 8c e5 46 be
       -0.041941166 -0.10588661 0.24123484 -0.19423503
000110 f8 b3 23 3d 24 bc e0 bd c8 f0 4a 3e 0c 61 38 3e
       0.039966553 -0.10973385 0.19818413 0.1800577
000120 9e f5 f4 3e 13 d5 c9 be 8a 45 83 3c 1d 6d 8d bd
       0.4784364 -0.39420375 0.01602437 -0.06905577
000130 23 93 17 3e 70 36 ec 3d 9d 64 5e bf 7a f9 1a 3d
       0.14802222 0.11533821 -0.86872274 0.037835576
000140 86 52 03 bc 20 76 4f bc b9 b9 59 3d 5e ca e7 bd
       -0.008015281 -0.012662441 0.053155635 -0.11317895
000150 43 e2 a0 3e f0 bd e4 3e f7 8b 48 be 6e be 0b be
       0.31422624 0.4467616 -0.19584642 -0.13646862
000160 81 67 66 3e 61 7d 94 3c 16 5c 0c bf a9 2e f7 be
       0.22500421 0.018126192 -0.5482801 -0.48277786
000170 33 b5 b2 be 0a 58 05 3e a1 9d 79 3e a0 00 37 3d
       -0.3490387 0.13021865 0.24376537 0.04467833

edge_conv.nn.0.bias f4 [8]
000000 20 e2 82 3c 26 1b 54 bc cf e6 3d 3d 18 34 84 bd
       0.015976965 -0.012945926 0.046362694 -0.064552486
000010 e3 ea ab be 3c a3 d9 bd d1 40 01 be f4 52 33 bd
       -0.33577642 -0.106268376 -0.12622382 -0.043780282

edge_conv.nn.2.weight f4 [64, 8]
000000 9f f3 6a 3d 9d 2f 16 be 07 4f c1 3e f0 36 f3 bd
       0.05736124 -0.146666 0.37755606 -0.11875713
000010 16 58 79 bc 0c c1 8a bd 31 63 d0 3e 13 2e ae be
       -0.015218755 -0.06775102 0.40700677 -0.34019527
000020 aa 37 ae bd 5a ce ad bc 69 fe 89 be b0 b4 9e bc
       -0.08506711 -0.02121656 -0.26951912 -0.019373268
000030 fc 67 cb 3d d0 63 59 3d 51 55 02 bf e5 dc 58 3e
       0.09931943 0.053073704 -0.5091143 0.21178015
000040 da 56 d5 3e 21 1e a7 3c 24 5c 9b 3e 16 5a 4b be
       0.41667825 0.020400109 0.30343735 -0.19858584
000050 0e ee 15 3f a4 ec ad bd 84 b8 9b 3e cb ad 0a 3e
       0.5856637 -0.08492401 0.30414212 0.1354286
000060 38 8a 28 3d bb 3a 97 3d 76 18 e2 be 64 19 28 be
       0.04114744 0.07384249 -0.44159287 -0.16415936
000070 68 38 68 3e 3f b2 3b be 39 9a c3 be c0 1d e1 3e
       0.22677767 -0.18329714 -0.382036 0.4396801
000080 c3 7a 6b 3e 72 37 b3 3e c1 72 df 3e cb 5c ad 3e
       0.22996049 0.3500324 0.43642238 0.33859858
000090 0d 24 12 bf 74 40 73 be 0c de 7c bc f4 5b 8d be
       -0.5708626 -0.23755056 -0.0154337995 -0.27609217
0000a0 f4 fa 98 be d3 aa 6e be 71 c6 51 be 5a 57 53 3e
       -0.29878962 -0.23307352 -0.20485856 0.2063879
0000b0 6a b8 c4 be e5 99 b1 3e 9b 42 fb be 82 92 8c 3e
       -0.38421947 0.34687725 -0.49074253 0.27455527
0000c0 c5 df a9 3e e1 e8 f4 be e1 fa 9f be d1 b1 28 be
       0.33178535 -0.47833923 -0.31246093 -0.16474082
0000d0 bc b7 65 3e 4e 09 ef bd 27 7a e8 3d c8 51 5f 3e
       0.2243337 -0.116716966 0.11351424 0.21808541
0000e0 40 e7 e8 3d ce e9 00 bc bd d6 b0 3e 51 c0 93 3e
       0.113722324 -0.007868243 0.34538832 0.28857663
0000f0 13 e8 72 be b5 b4 2b be 73 a0 47 3f e8 ad 97 be
       -0.23721342 -0.16768153 0.779792 -0.29624867
000100 2c 60 a9 be 0e 5c eb 3e c1 70 b8 3e 31 fa 80 be
       -0.33081186 0.4596867 0.36023524 -0.2519088
000110 7c ea 7b 3e b5 df 8b 3e f2 54 94 3e 54 f2 cd be
       0.24601167 0.27319112 0.28971058 -0.40223944
000120 d6 20 66 be 8b 28 b0 be 5f 4c 89 be ae cd 93 be
       -0.22473463 -0.34405932 -0.2681608 -0.2886786
000130 b2 b1 a0 3e 40 cc 12 bd 67 25 06 bf 2f 2b b0 3e
       0.3138557 -0.03583932 -0.5240082 0.34407946
000140 f0 4c 48 3c 81 89 15 3f ae 36 9d 3e 4e 9e 8f be
       0.012225375 0.5841294 0.3070578 -0.28050464
000150 07 95 e2 3d 2c b5 77 be ef 44 df be 4d aa e0 be
       0.11063581 -0.24190205 -0.4360728 -0.4387993
000160 c5 9d 9b 3e 98 6f f5 3e 22 8c ab bd b0 f0 db bc
       0.30393806 0.47936702 -0.083763376 -0.026848167
000170 90 4c c4 be 70 a2 f9 3d a1 04 ed be 8c 61 06 3e
       -0.38339663 0.121891856 -0.46292594 0.13123149
000180 a4 aa cb 3e 7a 19 2b 3f 6c 4a df be b0 36 99 be
       0.39778626 0.6683575 -0.43611467 -0.29924536
000190 80 18 9c 3d 44 98 62 be 29 43 cb bd 33 00 46 3c
       0.076218605 -0.22128397 -0.09924919 0.012085008
0001a0 77 5d 2a be ea ce b0 bc 95 05 e8 be 0e b8 55 3e
       -0.16637217 -0.02158304 -0.4531676 0.20870993
0001b0 56 3a 74 be c0 29 8d 3c 9d c7 63 3f 2e 0a 8e bd
       -0.23850378 0.017231822 0.8897646 -0.06935535
0001c0 f7 93 55 be 42 f0 9e 3e 21 0a ba 3e 00 9c b6 b9
       -0.20857225 0.31042677 0.36335853 -0.00034829974
0001d0 c7 a0 1c 3f e0 7e f2 bc 9f cd 0b 3f 9b 67 3f be
       0.61182827 -0.029601514 0.5461063 -0.18691866
0001e0 02 14 db bd 66 32 06 bf 6c 25 13 3d be 61 2a 3e
       -0.106971756 -0.5242065 0.03592436 0.16638848
0001f0 d7 03 0a 3f c6 c7 8a be fa 30 e3 3e 3e e6 85 3e
       0.5391211 -0.2710554 0.44373304 0.26152223
000200 99 1c 6d be 49 49 d4 3d 43 9a ab 3e 20 21 ad be
       -0.2315544 0.103655405 0.3351613 -0.33814335
000210 42 95 9f be 88 59 78 bd 4e 3d 2f 3f ff b7 59 be
       -0.31168562 -0.06063226 0.6845292 -0.21261595
000220 52 f2 54 be be bf 94 bd 64 44 49 3e 7d 76 92 3e
       -0.20795563 -0.072631344 0.19654995 0.28606024
000230 70 33 ad 3e 11 33 5f be 5e a8 df be f1 f5 66 3e
       0.33828306 -0.21796824 -0.4368314 0.22554757
000240 1c 2c b2 3c 6e 92 f4 be 08 4b 27 3e 28 68 cc 3d
       0.021749549 -0.47767967 0.16337216 0.09980804
000250 c3 9e c0 be 50 ba 91 3c f5 a8 70 3e b3 32 11 bf
       -0.37621126 0.017789036 0.23501952 -0.56717986
000260 27 50 cb be 95 e8 d0 3e 9c cb c0 3e 58 66 35 be
       -0.3970959 0.40802446 0.37655342 -0.17714822
000270 fb e3 97 be 77 9c 18 be 82 6c a0 3d fe 2f d1 be
       -0.29666123 -0.14903437 0.07833196 -0.40856928
000280 6a 42 90 bd da 71 4e be d8 c3 e2 be f8 79 96 3d
       -0.070439175 -0.20160618 -0.44290042 0.073474824
000290 ab 7d 0f be a4 c8 83 be d3 e2 51 be 8a 90 c8 3e
       -0.14012782 -0.25739014 -0.20496683 0.39172775
0002a0 af 5a 84 be 88 33 00 3f 34 23 f2 3d 10 de b3 be
       -0.25850436 0.5007863 0.11823121 -0.35130358
0002b0 fd 76 9e 3e cf c1 92 be 94 1d 1f 3f 15 86 79 bd
       0.30950156 -0.2866349 0.6215451 -0.060918886
0002c0 f2 8d 57 be 8f d0 07 bf 10 5f 2c 3f 72 3a 73 3e
       -0.21050242 -0.5305261 0.67332554 0.23752764
0002d0 60 f6 02 bf 94 ce bb 3d c2 a1 e8 3e d5 d5 b1 3d
       -0.5115719 0.09170261 0.4543591 0.08683363
0002e0 5e 89 9a 3e 77 d0 e5 3d 0c c2 70 3c 98 13 b3 bd
       0.30182928 0.11221402 0.014694702 -0.087439716
0002f0 20 fe 14 be 20 7b 26 bd 00 ce 28 3f 3e 23 b5 bd
       -0.14550066 -0.040644765 0.6593933 -0.088446125
000300 cc 6d ae be a6 59 e8 3e 35 51 02 3f 2f 33 85 3e
       -0.34068143 0.45380896 0.5090516 0.26015612
000310 04 f5 6a be 40 d7 a8 bd 60 52 87 3e 0a 02 0c be
       -0.22945029 -0.08244181 0.26430035 -0.13672653
000320 da 28 0c be 3b 77 78 3e 9b c1 6f be a5 1e a1 3e
       -0.13687459 0.24264233 -0.23413698 0.31468692
000330 72 08 90 3d 51 a1 90 3e 16 58 38 bf a4 83 d6 bd
       0.07032861 0.28248075 -0.7200941 -0.10474327
000340 7a d2 f1 3d 4a 25 96 be 3b c2 15 3f 00 7b 08 bb
       0.11807723 -0.29325324 0.584995 -0.0020825267
000350 bb 02 03 bf 3b e8 69 be 06 01 1f bf 5f b2 ad be
       -0.5117604 -0.22842495 -0.62110937 -0.3392515
000360 7f e0 ce 3d 49 31 1e 3e 96 bf 65 be 88 ca 13 bd
       0.10101413 0.15448488 -0.22436365 -0.03608182
000370 61 01 b9 3e 68 21 33 bd b9 06 78 be 28 a9 2b 3e
       0.36133865 -0.04373303 -0.24221314 0.16763747
000380 78 18 37 3e 92 d0 25 3f d4 36 19 bf 38 51 22 3d
       0.17880428 0.6477138 -0.59849286 0.039628237
000390 dd 18 91 bd aa d8 75 3e d5 f1 b5 3e 24 0c f4 3e
       -0.070848204 0.24008432 0.35536066 0.47665513
0003a0 74 91 91 3e 4f 8f a6 be 8a 1a 5f be 18 f4 79 bd
       0.28431284 -0.3253121 -0.21787468 -0.0610238
0003b0 72 6d 45 3e 70 8c 08 3d f8 20 55 3f ea e3 ec 3e
       0.19280031 0.033337057 0.8325343 0.46267635
0003c0 4a e2 6d 3d 26 27 07 bf 05 7a 0d bf 17 49 85 be
       0.058077134 -0.5279411 -0.5526431 -0.26032326
0003d0 db 09 d6 3d da 3e 82 be 23 20 45 be 25 14 4e 3e
       0.104510985 -0.25438577 -0.1925054 0.20124872
0003e0 b1 cb 85 be 18 ca 35 be 70 61 30 3f 7d c7 86 3e
       -0.26131967 -0.17752874 0.6889868 0.26324072
0003f0 a1 a9 c9 3d 88 be 14 bd 78 87 21 3e 43 0f fb bd
       0.09846807 -0.036314517 0.15774333 -0.1225877
